…
  "dataset_pct": 1.0,
  "num_workers": 8,
  "use_gpu": true,
  "tensorboard": false,
  "save_dir": "saved_folder_train",
  "debug": false,
  "resume": false,
  "start_epoch": 0,
  "milestones": [
    20,
    50,
    80,
    100
  ],
  "gamma": 0.5
}

Model Architecture Summary
==================================================

------------------------------------------------------------------------------------
              Layer (type)              Input Shape         Param #     Tr. Param #
====================================================================================
   ImageFeatureExtractor-1     [32, 7, 1, 224, 224]       1,716,441       1,716,441
               LayerNorm-2              [32, 7, 64]             128             128
                     GRU-3              [32, 7, 64]          24,960          24,960
                  Linear-4              [32, 7, 64]           8,320           8,320
                    Tanh-5             [32, 7, 128]               0               0
                  Linear-6             [32, 7, 128]             129             129
                  Linear-7              [32, 7, 64]           4,160           4,160
                    ReLU-8              [32, 7, 64]               0               0
                 Dropout-9              [32, 7, 64]               0               0
                 Linear-10              [32, 7, 64]           4,160           4,160
                   ReLU-11              [32, 7, 64]               0               0
                Dropout-12              [32, 7, 64]               0               0
                 Linear-13              [32, 7, 64]           4,160           4,160
====================================================================================
Total params: 1,762,458
Trainable params: 1,762,458
Non-trainable params: 0
------------------------------------------------------------------------------------


=========================================== Hierarchical Summary ===========================================

ImageModalityNet(
  (feature_extraction): ImageFeatureExtractor(
…
